flight_delay_model.pt (torch, 377995 bytes, 3 tensors)

net.0.weight f4 [128, 731]
00000000: c9e0 793d b4de b53d 4797 2e3e 2d6a db3d
00000010: ef2d 8e3d e577 e43d 8c8b 273d 864f 223c
00000020: eba5 e13d ac0c 053d d9a6 2dbd 63af 36bd
00000030: 9fad 95bc 8ebc 08bd fccc 453d c6b8 f93d
00000040: b73f 98bd 10ec 593c f360 843d e38e f63c
00000050: ba5a c53d acad eb3d 5fb6 cdbd 7be2 a63d
00000060: 9ac7 133e 34d2 393d 7324 d83a fc5f 5dbd
00000070: ccd0 ec3d 286b a03d 9123 283d e262 463d
00000080: ac05 2ebc f90d 80bc fc46 9dbc 681c ed3d
00000090: 3c18 3c3d ff6f 783d 8ff3 47bb bbaf e43c
000000a0: 2b08 e13d b6dd 823d 46c0 09bd 5dfd b4bc
000000b0: 6109 913d 2bae 353e 4e0f f3bc 0d02 cd3c
000000c0: 0796 b23c 5c91 523d 6b97 f43d 3a53 15b9
000000d0: 4e2b 2b3e c02e bd3d cf12 6e3b 6096 153c
000000e0: b188 b83d b7a8 073e 2507 293d 65bb 93bd
000000f0: f84c 4e3b 24a5 e23d 5998 14bd 57dc a13d
00000100: 5e8b 323c 191c d43d 3253 d03d 830a afbc
00000110: 2723 ac3d 531b 0b3e a79b b33d bdb5 323c
00000120: d695 1a3d c9ff 473d d479 443d e6bb fe3b
00000130: dfc9 e73d b5e2 aaba 37d6 0f3e a2a6 a93d
00000140: 2329 90bd 6581 8c3c bcc7 063d f5f7 05be
00000150: 32e2 843c 8205 12bd ee63 b53c a285 babd
00000160: 41a1 003d 0fc6 31bb e8a2 763d 80cb 473d
00000170: 36e0 dabb 1c75 b1bd 5453 dd3c 9f0c 253d
00000180: c8f1 5b3d c190 5cbc 66cc e03c bae4 643d
00000190: 1416 733c 3fd9 f73b 62ae 643d 95eb 683d
000001a0: 174a 113e 4c07 0dbd db72 0b3d 60c8 823e
000001b0: 06ab 05bd 76dc 64bb 6e28 39bd 6406 e13c
000001c0: c5ce 0b3d 01ee 6dbc 1f38 603c 22d6 663d
000001d0: c9d8 b2bc 379e 623b 51ac b93c 7fdd 2bbd
000001e0: fd6e d13c e03b c03c b847 093e bc85 4c3d
000001f0: 0ab3 e2bc 4e21 ad3c be54 72bb 3f88 8dbb
00000200: 3514 413d 5c20 1abd 382a 2c3d 4ea9 0e3d
00000210: fdb9 8c3d 27ce 893d e0fb 4ebd 48b8 9a3d
00000220: 0946 3c3d 26f0 28bd 1b38 853d fa63 8a3d
00000230: c791 873c e551 19bd 2bdd ca3d 5439 b5bc
00000240: 139b 933d c3ca 6c3d b568 e1bc b2e0 85ba
00000250: 76a1 333d 2866 6cbd bc43 903e 1662 243d
00000260: 05c6 b53c 0bec ccba f508 e93c 4b87 a53d
00000270: 3315 c73d c4b7 b63c 95a2 dc3c c9ee 143b
00000280: f853 16bd 7d89 4f3d 60bb aa3d 9bee be3d
00000290: 8ab8 773d f534 9a3c 4502 0f3e 70cf 2d3d
000002a0: 7ec0 353d 42c6 a23b b720 5a3d 5b0f a33d
000002b0: 93bb 5abc cb9d fb3d e8a8 8c3c 9d89 df3d
000002c0: 100e d33c b1f8 223d 748e 5dbd 64c6 1b3e
000002d0: 7edd 0f3c 9b3c f13b acb4 103d fd4a cc3d
000002e0: 1c32 123c d826 b8bd c74d 9b3b 3cfe 193e
000002f0: 9f83 9ebb e8bc 0f3e de77 043e 6c57 b23d
00000300: 4d1d bcbd 0d46 5e3d 8666 db3c ca72 df38
00000310: 681b b8bc af24 473e 157e 023e f011 2d3e
00000320: 1983 233d 340f f939 013b 323d 37ba 1b3c
00000330: 1400 2f3d e007 c53d 5c33 ea3d d606 023d
00000340: 5fa4 ab3d fe36 06be 17bc 5b3b fc97 623d
00000350: cfe0 3dbd 9fd1 e23d e9bc 70bd f5e5 ca3c
00000360: 4138 1b3d c26e a33c 6677 043e 3814 c73c
00000370: 56b9 583c e5e8 723c 69c3 213d 7331 62bd
00000380: d720 b7bb cf4c 2fbd 96c3 89bb 32a1 c33d
00000390: 942e f33d 8f03 e33d 0a48 16bd 1cbe d3bd
000003a0: adc5 cd3c 3951 4c3d dd79 6dbd 5fa7 123d
000003b0: 7a04 ed3c a15d b43c f76b 003d ddca fabc
000003c0: 0921 973d 06a5 1b3d e10f 023e 948b f93d
000003d0: 8af0 4b3d cc1b d33d 2eb6 df3d 4eb6 2dbd
000003e0: 29b1 463d 0aad 2d3d 85f8 753d b3df 043d
000003f0: 8074 c53d 747c 4f3d df9e 883d cbcd 12bc
0.061005387 0.08880368 0.17049895 0.10713611 0.06942355 0.111556806 0.040904567 0.009906655
0.110179745 0.032482788 -0.042395446 -0.044600856 -0.018271266 -0.033382945 0.04829119 0.12193446
-0.07434028 0.013300911 0.06463804 0.03009743 0.09636445 0.11507735 -0.1004455 0.081486665
0.1443161 0.04536648 0.0016490355 -0.054046616 0.11563262 0.078329384 0.041049544 0.048434146
-0.0106214695 -0.015631663 -0.019198887 0.11577684 0.04592155 0.060653683 -0.0030510162 0.027915826
0.10987886 0.06389944 -0.033630632 -0.02209347 0.07081867 0.17742221 -0.029670384 0.025025392
0.021800054 0.051408157 0.11942943 -0.00014240752 0.16715738 0.092374325 0.0036327129 0.0091300905
0.09010447 0.13247953 0.04126658 -0.07213477 0.0031478982 0.11066654 -0.036278103 0.079033546
0.010897486 0.10356922 0.10172118 -0.021367317 0.08405142 0.13584642 0.08769923 0.010907588
0.03774055 0.04882792 0.047967747 0.007773864 0.11317801 -0.0013037535 0.1404656 0.08283736
-0.07039096 0.017151544 0.032905325 -0.1308287 0.01622114 -0.035649784 0.022142377 -0.0910752
0.031403784 -0.0027126109 0.060213953 0.048778057 -0.00667956 -0.08664915 0.027017273 0.04029524
0.053697377 -0.013462246 0.027441215 0.055882193 0.014836807 0.0075637395 0.055830367 0.056865294
0.1418842 -0.034430787 0.03404508 0.255435 -0.032633804 -0.0034921444 -0.045204572 0.027468868
0.034132738 -0.014522077 0.013685255 0.056356557 -0.021831887 0.0034579167 0.022665175 -0.041959282
0.025565619 0.02346605 0.13406265 0.049932227 -0.027673263 0.021134045 -0.003697678 -0.0043192203
0.04713841 -0.037628517 0.04203245 0.03482943 0.06871412 0.067287736 -0.050533175 0.0755468
0.04596523 -0.04124465 0.06504842 0.0675735 0.016549004 -0.037431616 0.09905466 -0.022122063
0.072073124 0.057810556 -0.027515749 -0.0010214059 0.043855153 -0.05771461 0.28176677 0.040132605
0.02218915 -0.0015634311 0.028446654 0.08082446 0.0972084 0.022304423 0.026932994 0.0022725335
-0.036701173 0.05066823 0.0833652 0.09322854 0.060478725 0.01882408 0.1396571 0.042434156
0.044373028 0.004967482 0.053253856 0.07961913 -0.013350385 0.12285956 0.017170385 0.109149195
0.025763541 0.03978795 -0.054090932 0.15212399 0.008780835 0.007361961 0.035328552 0.099752404
0.00892308 -0.08991784 0.0047394964 0.15038389 -0.004837468 0.14036906 0.1293635 0.08708081
-0.09185276 0.054266024 0.026782285 0.0001065485 -0.022474006 0.19447587 0.12743409 0.16901374
0.039919946 0.00047504308 0.0435133 0.009504846 0.042724684 0.09620643 0.11435577 0.0317448
0.08380961 -0.13106915 0.0033528858 0.055320725 -0.046356972 0.11075138 -0.05877391 0.024767855
0.037895445 0.019950274 0.12936172 0.024301633 0.013227781 0.014826034 0.039493 -0.05522294
-0.0055886316 -0.04279786 -0.004204224 0.0955223 0.118741184 0.11084663 -0.036689796 -0.10338995
0.025118673 0.049882147 -0.057977546 0.03580415 0.028932799 0.022017302 0.031352963 -0.03061431
0.07379348 0.037999175 0.1270137 0.121848255 0.049789943 0.10308036 0.1092342 -0.042410187
0.048508797 0.04240135 0.06005146 0.0324399 0.09641361 0.050655797 0.06670927 -0.008960198

net.0.bias f4 [128]
00000000: d012 f03d 95b7 f53d 7e66 273c 3ec7 26bd
00000010: 4ecf 923b 7fcb 083d e6e1 e03b 294d 36bc
00000020: d46f af3d acc5 21bd a386 1abd 8e96 b43d
00000030: a33b 2abd 1f44 a53d 730b 013d 3b05 08bd
00000040: cf4e ddbc 9d65 cb3c 34fb fabd 8673 b5bc
00000050: e2a3 13bd 010c b0bd 9c93 973d 100c 92bd
00000060: 671f a63d 06e1 8fbb fe4c 003b 7798 90bd
00000070: 24a9 9dbc d276 6b3d de55 aa3d 9c06 253d
00000080: 3983 823d 1e3b 15bd 6801 d43d 283f 383d
00000090: 7f4a 87bc 45a4 cdbd 098f 22bd 67f9 58bd
000000a0: 770f 85bd e544 373b bdf5 2b3e e84c c7bd
000000b0: ee3a 083e c3b8 c0bb 592c d5bc 9484 ff3d
000000c0: dd73 2bbd a6c9 363d 3719 e53d d0d6 b1ba
000000d0: 104d d8bd 25a9 d23c 73e8 eb3d c5b7 f13d
000000e0: 28a7 8c3d 598b 143d 7da0 9dbd 8e1b 183b
000000f0: 6eb5 c23d e3bf 6bbd c8a0 e73d 270b e43c
00000100: f317 3c3d 3cc4 76bd 27f7 133e f34b 69be
00000110: 5a32 2d3d 87ca f7bc b65d b63d dd41 5ebd
00000120: c6d2 71bc 0fec 04bd bdc5 9ebd b47e 843d
00000130: 5886 ac3d 2fd9 8abc 2f82 953c 8a7c ae3d
00000140: 57b7 7abd b250 0dbd 34c0 153e 7316 b33d
00000150: 18a8 cd3d e13e 893c 60ed 6fbd aaff 81bc
00000160: 8b0e ff3c e3d6 aebc a59a 3ebd 9d2b d2bc
00000170: e9b8 9f3d 6c68 46bd 3d12 1abd f33a 953d
00000180: 8201 103d a4dd 163c 4450 76bd 56c9 e33d
00000190: 987e 4d3d 8551 e43d ea5b 6ebd 6e2d 16bd
000001a0: 7dfd 9e3d 9cef e7bc 5b70 49bd b78c a53d
000001b0: 6730 8b3d ab5d e73d 9ff2 803d 2851 a33c
000001c0: 3d6f 3dbd 5d62 0cbd 2cc9 22bd 3429 0abe
000001d0: 47ac 95bd 9031 663d a57d 2a3d 2bf4 213e
000001e0: 922d fcbd 2921 843d 8721 4abd 272a ebbc
000001f0: 427a b93d b1e2 f2bc a6f9 343d e8b7 67bd
0.11722338 0.11997906 0.010217307 -0.040717356 0.004480279 0.033397194 0.0068628667 -0.011126795
0.085662514 -0.039495155 -0.037726056 0.088177785 -0.04156078 0.08069634 0.03150506 -0.033208113
-0.027015118 0.024828726 -0.122549444 -0.022149812 -0.036044963 -0.085960396 0.07401201 -0.07131207
0.08111458 -0.0043908386 0.001957714 -0.0706033 -0.019245692 0.057486363 0.08317159 0.040289506
0.06372685 -0.03643333 0.10351831 0.044982105 -0.016515015 -0.100410976 -0.03968719 -0.052972224
-0.0649709 0.0027964648 0.1679296 -0.097314656 0.1330373 -0.0058814003 -0.026022123 0.12476459
-0.041858543 0.0446259 0.1118645 -0.0013568047 -0.105615735 0.02571542 0.115189455 0.118026294
0.0686782 0.036265705 -0.07696626 0.0023209783 0.09507261 -0.057556044 0.113099635 0.02783735
0.045921277 -0.060245737 0.1444975 -0.22782879 0.042284347 -0.03024794 0.08904593 -0.05426203
-0.014759725 -0.032451686 -0.07752559 0.06469479 0.084240615 -0.016949264 0.018250553 0.08519848
-0.061210003 -0.034500785 0.14624101 0.08744516 0.10041827 0.016753616 -0.058575988 -0.01586898
0.031134864 -0.0213427 -0.0465342 -0.025655562 0.07798941 -0.04843943 -0.03761505 0.07286634
0.035157688 0.009208117 -0.06013514 0.11122386 0.050169557 0.11148361 -0.058193125 -0.03666442
0.07763193 -0.028312497 -0.049179416 0.0808348 0.067963414 0.112971626 0.06296276 0.01993616
-0.046248663 -0.034273494 -0.039742634 -0.1349228 -0.0730825 0.05619961 0.04162373 0.15815799
-0.12313379 0.06451637 -0.04934838 -0.028706623 0.09056522 -0.02964911 0.044183396 -0.05657187

net.3.weight f4 [1, 128]
00000000: 3b6a 4dbd 9595 b6bd 40ff 2bbe 1a11 fd3e
00000010: 8f48 153f 68d5 d7bd 038a 2abe 857c 31be
00000020: d4c5 a4bd a968 e43e 66d4 dcbe fb7f a3bd
00000030: 7d1b 033f 209e debd 2a93 10be b8c6 d0be
00000040: 8e03 98be 7e97 5dbe 8943 2cbf efa2 023f
00000050: 775f 163c 1e33 013f fbe4 96bd 683d 88be
00000060: 34d8 e5bd 0257 e13e de03 06be b605 9abe
00000070: 5367 e03e 0b7e f7bd 60fc 88bd 529e dbbd
00000080: 4dc7 efbd a149 143f bf73 7fbd adbe debd
00000090: ddf2 c53e 00dc 1e3f be0c de3e 5ac8 263f
000000a0: 26e0 f53e a58e 26be f343 85bd 7569 1a3f
000000b0: b52e 7ebd 9235 90be b048 d63e f233 82bd
000000c0: 5653 ea3e 048d 0cbe 1785 ccbd 5bf6 cf3e
000000d0: bc43 ed3e a222 1dbe 5e9f 91bd 2ad0 b2bd
000000e0: 3fcd ffbd 4a7a bbbd 4203 a4be 7824 22be
000000f0: 797f afbd ede1 393f 7b9f 3ebd 3bec e4bd
00000100: 89b6 d9bd b98b 0e3f ef2e 99bd 284f 683f
00000110: 73c5 32be 3a13 003f 6cee 87bd 9a45 213f
00000120: 5fe3 e03e 59e3 083f f734 093f 215e e3bd
00000130: 30f3 cebd a096 82be 21c2 f9bd ae10 bfbd
00000140: b610 143f b2ee 1b3f 6ba3 8ebd 085f c5bd
00000150: 6624 cdbd 1df9 06be ed8f e53e ff57 85be
00000160: 4590 0bbe be44 fe3e c410 0d3f 602c f13e
00000170: b3cc b5bd 1581 fa3e 26f8 f53e e37f cebd
00000180: 1116 0abe 25ea 46be 9cdd 103f 0f3f abbd
00000190: 67e6 1bbe 2aa0 d4bd 8c81 1d3f 3bfe 073f
000001a0: ecf9 fabd acaf 4dbe 082e eb3e a9c5 f1bd
000001b0: 16d5 e4bd 64ce abbd 92fe f8bd 762e 0ebe
000001c0: 6191 2c3f 2669 02bf 954b 4abe a467 3f3f
000001d0: d372 b5be 4364 00be 656a 04be 8e63 9ebd
000001e0: 54e3 cfbe 224e 07be 4b36 d73e 0c97 98be
000001f0: b7fd 83bd 18a1 c73e 6e32 0abe 10f7 063f
-0.050150137 -0.08915249 -0.16796589 0.4942711 0.5831384 -0.10538751 -0.1665421 -0.17332657
-0.08045545 0.446111 -0.43130797 -0.07983395 0.5121382 -0.10870004 -0.14118639 -0.4077661
-0.29690212 -0.21639821 -0.6729055 0.51029867 0.009178034 0.50468624 -0.07367893 -0.2660935
-0.11222878 0.44011694 -0.13087413 -0.30082482 0.4382883 -0.12084588 -0.06688762 -0.107235566
-0.117079355 0.5792485 -0.062366243 -0.10876212 0.38661852 0.62054443 0.43369097 0.6514946
0.48022574 -0.16265352 -0.06507101 0.60317165 -0.062056262 -0.2816587 0.4185233 -0.06357564
0.45766705 -0.13725668 -0.099863224 0.40617642 0.4634074 -0.15345243 -0.07110475 -0.087311104
-0.124903195 -0.09154184 -0.32033736 -0.15834224 -0.08569235 0.7261036 -0.04653881 -0.1117787
-0.10630519 0.5568195 -0.07479655 0.9074578 -0.17458133 0.5002934 -0.06637272 0.6299683
0.4392347 0.53471905 0.5359644 -0.11101938 -0.10104978 -0.25505543 -0.1219523 -0.09329353
0.57838 0.60911095 -0.06964763 -0.096372664 -0.10016708 -0.13180967 0.4483637 -0.26043698
-0.13629253 0.4966182 0.5510371 0.47104168 -0.08876934 0.48926607 0.48040885 -0.10082986
-0.1348498 -0.19425257 0.5658815 -0.08361637 -0.1522461 -0.10382111 0.615258 0.531223
-0.122547 -0.20086545 0.45933557 -0.11805279 -0.111734554 -0.08388975 -0.121579304 -0.13884911
0.6740933 -0.50941694 -0.19755395 0.7476752 -0.35439166 -0.12538247 -0.12931211 -0.07733832
-0.40603125 -0.13213399 0.4203361 -0.2980274 -0.06444877 0.38990092 -0.134958 0.5272074
